backend/models/onnx/waste_predictor.onnx (onnx, 60524 bytes, 21 tensors)

network.0.weight f4 [128, 19]
0	0xbe0c4896	-0.13699564
1	0x3d92376e	0.071394786
2	0x3c072147	0.00824768
3	0x3d84b743	0.06480267
4	0xbe35d9af	-0.17758821
5	0x3e2ac88c	0.16678065
6	0x3da8dcb3	0.0824522
7	0xbe20bdba	-0.15697375
8	0xbdf2d305	-0.11856655
9	0x3b8c47f3	0.004281038
10	0xbb13cea1	-0.002255358
11	0xbb88ff8e	-0.004180855
12	0x3e2e28aa	0.170077
13	0x3e62897a	0.22122756
14	0xbd6703f4	-0.056400254
15	0x3e32b552	0.1745198
16	0x3e18b825	0.14913996
17	0x3c93dba3	0.018049067
18	0x3e2b7020	0.16741991
19	0x3c826aea	0.015920121
20	0xbdcc0074	-0.09961024
21	0xbe0d2628	-0.13784087
22	0x3e041952	0.12900284
23	0x3ce39075	0.027778843
24	0x3c107ca2	0.008818777
25	0x3d55feb3	0.052244853
26	0xbd29e0e1	-0.041474227
27	0x3e282a5a	0.16422406
28	0xbd57aae3	-0.052653205
29	0xbe265d5d	-0.16246553
30	0xbc2f82ab	-0.010712306
31	0x3e0830b5	0.1329983
32	0x3e31022f	0.17285989
33	0xbd69adde	-0.05705058
34	0x3de86de6	0.113490865
35	0xbde741c3	-0.1129184
36	0xbe43b4fb	-0.19112007
37	0xbe13bb6b	-0.14426963
38	0xbd237d3e	-0.039914362
39	0x3df25202	0.11832048
40	0xbd0c1913	-0.0342036
41	0xbe27643b	-0.16346829
42	0xbd161e01	-0.036649708
43	0x3d7c4dd5	0.061597664
44	0xbe540d88	-0.20708287
45	0xbcf865df	-0.030322013
46	0xbe593b71	-0.21214081
47	0x3e21ba69	0.15793766
48	0xbde4d4b7	-0.11173385
49	0xbd98eccf	-0.07467043
50	0xbe5bf91e	-0.2148175
51	0x3ddddaeb	0.10832771
52	0xbe3711d2	-0.17877892
53	0x3de0cdb6	0.10976736
54	0x3c9dc859	0.019260572
55	0xbdff4f47	-0.12466293
56	0x3e4e01c4	0.20117861
57	0x3cd452d7	0.025918407
58	0xbe315dd0	-0.17320943
59	0xbddee76e	-0.108839855
60	0xbe0e5342	-0.13898948
61	0x3e4cf30c	0.2001459
62	0x3de693f1	0.11258686
63	0xbe492e22	-0.19646505
64	0x3ceeb25f	0.029137788
65	0x3d57b592	0.052663393
66	0xbdeed576	-0.11661808
67	0xbe22d400	-0.15901184
68	0x3c8ad398	0.016946599
69	0x3db3df62	0.08782841
70	0x3e098236	0.13428578
71	0xbe279d2e	-0.16368553
72	0xbdfcc72d	-0.12342677
73	0xbe023860	-0.12716818
74	0x3dbd5217	0.09244173
75	0xbe283fc5	-0.16430576
76	0xbc403541	-0.011731447
77	0x3e0a542d	0.13508673
78	0xbccc4a8f	-0.024937896
79	0xbe27433f	-0.16334246
80	0x3e1e9624	0.15486962
81	0xbd9c9cec	-0.07647118
82	0x3c7aecb6	0.015315225
83	0xbcea1009	-0.0285721
84	0x3e1c2647	0.15248977
85	0x3e233e41	0.15941717
86	0xbd8cf172	-0.068819895
87	0x3e16b07a	0.14715758
88	0xbe48b224	-0.19599205
89	0xbd71c340	-0.059024096
90	0x3de0c933	0.10975876
91	0xbe0a8b40	-0.13529682
92	0xbc4332db	-0.01191398
93	0x3e3bcc98	0.18339765
94	0xbe3d231c	-0.18470424
95	0xbdf372cb	-0.118871294
96	0xbe2de0a3	-0.16980223
97	0xbe10e483	-0.1414967
98	0xbe2b070d	-0.16701908
99	0xbd2b3734	-0.041800693
100	0x3e48dc4e	0.1961529
101	0xbd9ab344	-0.075537235
102	0xbdb5fc13	-0.0888597
103	0xbe1ded5c	-0.15422577
104	0xbe059b59	-0.13047542
105	0x3d687d55	0.05676015
106	0xbe56db68	-0.20982134
107	0xbde7b1ce	-0.113132104
108	0xbd2113cd	-0.039325524
109	0xbdddcda1	-0.10830236
110	0x3df3825c	0.118900985
111	0x3e1d3fb7	0.15356337
112	0xbe2d7a67	-0.16941224
113	0x3e0562d3	0.1302598
114	0xbde785a2	-0.11304785
115	0x3de865dc	0.11347553
116	0x3d7cb777	0.061698403
117	0xbe48bdf4	-0.19603711
118	0x3dad7359	0.084692664
119	0x3df47508	0.119363844
120	0xbe0953bb	-0.13410847
121	0x3e24f58f	0.16109298
122	0x3dc9ddb4	0.0985674
123	0xbd599566	-0.053120993
124	0x3d295045	0.041336317
125	0xbcc4c469	-0.024019437
126	0x3e32fdc7	0.17479621
127	0x3d5e57ab	0.054282825
128	0x3e2270b7	0.1586331
129	0x3e46a792	0.1939986
130	0xbdd1d694	-0.10246006
131	0xbdf64126	-0.12024145
132	0x3e669605	0.22518165
133	0x3cafe4c0	0.021471381
134	0x3e3b7a2b	0.18308322
135	0xbdab9674	-0.08378306
136	0xbe1e46c1	-0.15456678
137	0x3dbf406c	0.09338459
138	0x3dee7c5e	0.11644815
139	0xbd6c2178	-0.057649106
140	0x3e5da31d	0.21644254
141	0xbc563b71	-0.013075695
142	0xbdf1d16c	-0.11807522
143	0xbc388b16	-0.011263629
144	0x3e45caac	0.19315594
145	0x3c7a1944	0.015264813
146	0xbe4dc48b	-0.20094506
147	0xbdc3cc85	-0.095604934
148	0x3db6d191	0.0892669
149	0xbd640db5	-0.055677135
150	0xbe000b8d	-0.12504406
151	0x3e3f8e3a	0.18706599
152	0xbe3ee921	-0.18643619
153	0xbe4d9fa4	-0.2008043
154	0xbdf1fccd	-0.11815796
155	0xbddf4401	-0.109016426
156	0x3e327d56	0.17430624
157	0x3d2f1675	0.042746026
158	0x3d0aa366	0.033847235
159	0x3dc683a5	0.09693078
160	0x3dd267fb	0.10273739
161	0xbdacf0db	-0.08444377
162	0x3d836c50	0.06417143
163	0xbd8c0af2	-0.06838025
164	0x3d470889	0.048592124
165	0xbd0d673f	-0.03452229
166	0xbdebf872	-0.115219966
167	0xbb994c04	-0.004678251
168	0xbcd06aa3	-0.025441473
169	0xbe4dc340	-0.20094013
170	0xbe43ab9c	-0.19108433
171	0x3d85cec9	0.06533582
172	0xbdd5c5a7	-0.1043809
173	0xbdd46bfb	-0.10372158
174	0x3c29efb0	0.010372087
175	0x3c8f48ec	0.017490827
176	0x3e32f668	0.17476809
177	0x3e4f9651	0.20272185
178	0xbbbbdd7b	-0.0057331896
179	0xbdcecc58	-0.10097569
180	0xbddf1695	-0.10892979
181	0xbe054b13	-0.1301692
182	0x3e13aac3	0.14420609
183	0x3de75892	0.1129619
184	0x3e4be691	0.19912173
185	0x3d43ef43	0.0478356
186	0xbe16dc84	-0.14732558
187	0x3e5da479	0.21644773
188	0x3e013c2f	0.12620614
189	0xbe07ad87	-0.13249789
190	0x3d6298c1	0.05532146
191	0xbe5df53f	-0.21675585
192	0xbd80f6f1	-0.062971
193	0xbe5866e9	-0.21133007
194	0xbd9df051	-0.07711852
195	0xbe66685e	-0.2250075
196	0xbdd6d2cc	-0.10489425
197	0x3e32ff48	0.17480195
198	0xbddd3507	-0.1080113
199	0xbe22c0f5	-0.1589392
200	0x3df79333	0.12088623
201	0xbe61a3c6	-0.22035131
202	0x3c31847a	0.0108348075
203	0xbd399632	-0.045309253
204	0xbdd76806	-0.10517888
205	0x3e2c1059	0.16803111
206	0x3dcee7ed	0.1010283
207	0x3d2a3992	0.04155881
208	0xbd5a8ec7	-0.05335882
209	0xbdcbc0c2	-0.09948875
210	0xbe52f74a	-0.20602146
211	0xbcde2379	-0.027116524
212	0x3e4867f4	0.19570905
213	0x3d87703b	0.06613203
214	0x3e0884e6	0.13331947
215	0x3e3528e6	0.17691383
216	0xbda39a58	-0.07988423
217	0xbe1c360e	-0.15254995
218	0xbdefe10d	-0.11712847
219	0xbe3261c3	-0.17420106
220	0x3d2b4595	0.041814405
221	0xbe1c81d0	-0.15283895
222	0x3dcb7ab1	0.09935511
223	0x3e47d1aa	0.19513574
224	0xbdfbd7ee	-0.12297045
225	0xbe22722b	-0.15863864
226	0xbc2f39b4	-0.01069491
227	0x3dd5cc3e	0.10439347
228	0xbe1e2418	-0.15443456
229	0xbded2f77	-0.11581319
230	0x3dc0b7ba	0.09410043
231	0x3db7a675	0.08967296
232	0xbd8e3f28	-0.0694564
233	0xbe1fa9d0	-0.15592122
234	0x3dfe44ac	0.12415442
235	0xbdde8ee0	-0.10867095
236	0x3e1ea3a0	0.15492105
237	0x3c1cf2f5	0.00957941
238	0xbe0b8d07	-0.13628016
239	0x3cdd0f2a	0.02698477
240	0x3e77e4a0	0.24208307
241	0x3e5ec97b	0.21756546
242	0x3df87721	0.12132097
243	0xbe1e073a	-0.15432444
244	0x3e0697a5	0.13143785
245	0x3d83f490	0.06443131
246	0x3d44859b	0.04797898
247	0xbe8a1804	-0.26971447
248	0xbe464a22	-0.19364217
249	0x3e1b9c40	0.15196323
250	0x3b9577e9	0.0045614135
251	0xbbce7afe	-0.006301283
252	0xbc855f53	-0.016280806
253	0xbdd3b801	-0.1033783
254	0xbd79881c	-0.06092082
255	0xbd64c586	-0.055852436

network.0.bias f4 [128]
0	0x3dda68fb	0.10664555
1	0x3cd6b0f3	0.026207423
2	0x3e2a12d1	0.1660874
3	0x3e5a3f5f	0.21313237
4	0xbd5557c3	-0.05208565
5	0x3e17b594	0.1481536
6	0x3d67da06	0.056604408
7	0xbde0013d	-0.10937736
8	0x3e48163d	0.19539733
9	0x3e1e92ad	0.1548564
10	0x3d9b9a8a	0.07597835
11	0xbdd95406	-0.10611729
12	0xbe067226	-0.13129482
13	0xbd4b7c21	-0.049678925
14	0x3e02167d	0.12703891
15	0xbe50c1c2	-0.20386413
16	0xbcd85f38	-0.026412591
17	0xbd8ae2a2	-0.06781508
18	0x3e14cd0c	0.14531344
19	0x3e42068a	0.18947807
20	0x3c758b95	0.014986892
21	0x3dc25dd4	0.094905525
22	0x3d41aa41	0.047281507
23	0xbd99eff3	-0.0751647
24	0x3e4078e9	0.18796124
25	0xbe586cc3	-0.2113524
26	0xbdd89c1b	-0.1057665
27	0x3e09b6ce	0.1344864
28	0xbe1626ae	-0.14663193
29	0xbcb2395b	-0.021755865
30	0xbdd05dbb	-0.10174128
31	0xbdacf38e	-0.08444892
32	0x3e38011f	0.17969178
33	0x3c95162b	0.018199047
34	0x3dc1c8da	0.094621375
35	0xba8294b1	-0.0009962526
36	0x3d82ccb6	0.06386702
37	0xbd56981a	-0.05239115
38	0xbe347153	-0.17621355
39	0x3e37f922	0.1796613
40	0xbe2b5444	-0.16731364
41	0x3e0875e5	0.13326223
42	0xbd3aa3cf	-0.045566376
43	0xbd92e064	-0.07171705
44	0x3e03fafe	0.12888715
45	0x3e5b8cc4	0.21440417
46	0x3d9e4a50	0.07729018
47	0x3d86c9ef	0.065814845
48	0x3e2f50d9	0.17120685
49	0x3e56f223	0.20990805
50	0xbcd95e33	-0.026534176
51	0x3cc1851b	0.02362304
52	0xbbf9c6bf	-0.0076225693
53	0xbe5f443c	-0.21803373
54	0x3e00d5ea	0.12581602
55	0x3e4e15d9	0.20125522
56	0x3cab85e8	0.020937875
57	0xbdd2103e	-0.10257004
58	0xbc725714	-0.014791269
59	0x3d2b3125	0.041794915
60	0x3d92d680	0.07169819
61	0x3e128e3c	0.1431207
62	0x3d080589	0.033208404
63	0xbceb5e1f	-0.028731404
64	0x3e757159	0.2396902
65	0xbdaa1d01	-0.08306313
66	0xbca6242b	-0.020280918
67	0x3db5ffe0	0.08886695
68	0x3dff238f	0.12457954
69	0x3e1e34e3	0.15449862
70	0xbd832356	-0.06403224
71	0x3e0e40d0	0.13891912
72	0x3e531967	0.20615159
73	0xbdc768a3	-0.09736755
74	0xbd234ab3	-0.03986616
75	0x3decedfd	0.1156883
76	0xbe616f23	-0.22015052
77	0x3e082607	0.13295756
78	0xbdfa4a10	-0.122211576
79	0xbe1a8fe0	-0.15093946
80	0x3c19797b	0.009367342
81	0xbe09df67	-0.13464127
82	0x3c45d399	0.012074375
83	0xbe41c3bc	-0.18922323
84	0x3dd51254	0.104038864
85	0x3e8246f0	0.25444746
86	0xbdd35a26	-0.10319929
87	0x3e2361b2	0.15955237
88	0xbdc1f671	-0.09470833
89	0xbcb4f11e	-0.02208763
90	0x3e178b6b	0.14799277
91	0xbdd213c2	-0.10257675
92	0xbdea61ab	-0.1144441
93	0x3e7ad568	0.2449547
94	0x3e60cb92	0.21952656
95	0xbe17a0d5	-0.14807446
96	0xbe30e6cf	-0.17275546
97	0xbdfc102b	-0.12307771
98	0x3e3980f7	0.18115602
99	0x3e0c709e	0.13714835
100	0x3e1b82ad	0.15186568
101	0xbd92195e	-0.07133745
102	0x3d78fbe1	0.060787085
103	0xbe5d89c5	-0.21634586
104	0x3e1096f5	0.14120086
105	0xbd0f353c	-0.034962878
106	0x3cbdf15a	0.023186374
107	0xbe343ebf	-0.1760206
108	0xbd54ee15	-0.051984865
109	0x3e5c9b2b	0.21543567
110	0x3e11a809	0.14224257
111	0xbe0c3da4	-0.13695389
112	0xbd836f06	-0.064176604
113	0xbe5c78f7	-0.2153052
114	0xbd7d85aa	-0.06189505
115	0xbd46fa84	-0.048578754
116	0x3e33720b	0.17523973
117	0x3dc7daf6	0.0975856
118	0xbe7729be	-0.24137017
119	0xbe112947	-0.14175902
120	0xbe00ba60	-0.12571096
121	0x3d5b5d31	0.05355567
122	0x3d4c35d5	0.049856026
123	0xbd07d742	-0.03316427
124	0x3e83f3e6	0.25772017
125	0xbe403c7f	-0.18773077
126	0x3c913ab1	0.017728182
127	0x3dab481c	0.08363363

network.2.weight f4 [128]
0	0x3f818c59	1.0120956
1	0x3f877dcb	1.0585264
2	0x3f775ba6	0.9662422
3	0x3f828032	1.0195372
4	0x3f7dfab5	0.99210674
5	0x3f7ec18c	0.9951408
6	0x3f782079	0.9692455
7	0x3f738bb0	0.9513502
8	0x3f81d68b	1.0143598
9	0x3f7a6445	0.9780925
10	0x3f7cb384	0.9871142
11	0x3f7cc9e7	0.9874558
12	0x3f81c9dd	1.0139729
13	0x3f8464a6	1.0343215
14	0x3f83e9d3	1.0305732
15	0x3f6fc087	0.9365315
16	0x3f8129b1	1.0090848
17	0x3f78c906	0.9718174
18	0x3f778471	0.96686465
19	0x3f7c0e98	0.9845977
20	0x3f78ac00	0.9713745
21	0x3f85991b	1.0437349
22	0x3f7f33c9	0.9968839
23	0x3f80a059	1.0048934
24	0x3f83cfe3	1.0297817
25	0x3f7a5569	0.97786576
26	0x3f73b7c3	0.95202273
27	0x3f7b0c3f	0.9806556
28	0x3f87df30	1.0614986
29	0x3f837d9e	1.027271
30	0x3f7f4bdb	0.9972512
31	0x3f762ab0	0.96158886
32	0x3f818bf3	1.0120834
33	0x3f8387f8	1.0275869
34	0x3f76feec	0.9648273
35	0x3f858373	1.043074
36	0x3f855010	1.0415058
37	0x3f7f8022	0.9980489
38	0x3f7c062a	0.98446906
39	0x3f850409	1.0391856
40	0x3f847e8c	1.0351119
41	0x3f77b765	0.9676421
42	0x3f71b37b	0.9441449
43	0x3f782b86	0.9694141
44	0x3f78e52d	0.97224694
45	0x3f789fdc	0.97118926
46	0x3f82e5c4	1.0226369
47	0x3f7ca18a	0.9868399
48	0x3f6e130d	0.9299782
49	0x3f79a703	0.97520465
50	0x3f7d8054	0.9902394
51	0x3f774054	0.9658253
52	0x3f7a69e3	0.9781782
53	0x3f87fea5	1.0624586
54	0x3f829f34	1.0204835
55	0x3f82c787	1.0217141
56	0x3f7de3dc	0.9917581
57	0x3f8263c4	1.0186696
58	0x3f7fcbba	0.9992024
59	0x3f79edba	0.97628367
60	0x3f7ce116	0.98780954
61	0x3f78200a	0.9692389
62	0x3f88df0d	1.069307
63	0x3f83db55	1.030131
64	0x3f7a9f7e	0.97899616
65	0x3f7d520b	0.9895331
66	0x3f7ce2f3	0.987838
67	0x3f7a8e9e	0.97873867
68	0x3f818349	1.011819
69	0x3f85ea66	1.0462158
70	0x3f8109fb	1.0081171
71	0x3f824213	1.0176414
72	0x3f7d18bc	0.98865867
73	0x3f7b138b	0.98076695
74	0x3f73c8ff	0.9522857
75	0x3f761e14	0.96139646
76	0x3f78ed9c	0.97237563
77	0x3f7da15b	0.99074334
78	0x3f7fcb38	0.9991946
79	0x3f800410	1.000124
80	0x3f80b897	1.0056332
81	0x3f76251c	0.96150374
82	0x3f81ed3d	1.0150524
83	0x3f7e2dd3	0.9928867
84	0x3f7efa45	0.9960063
85	0x3f8879d7	1.0662183
86	0x3f7e4aec	0.9933307
87	0x3f817e35	1.011664
88	0x3f8566c6	1.0421989
89	0x3f75cceb	0.96015805
90	0x3f7eda3b	0.99551743
91	0x3f786aee	0.9703816
92	0x3f7a2d8b	0.97725743
93	0x3f7a0841	0.97668844
94	0x3f82eba0	1.0228157
95	0x3f81c9d8	1.0139723
96	0x3f82cc61	1.0218621
97	0x3f781133	0.96901244
98	0x3f81df7d	1.0146328
99	0x3f7e82c4	0.9941828
100	0x3f86a5c5	1.0519339
101	0x3f77e123	0.96827906
102	0x3f827656	1.0192363
103	0x3f78ff75	0.97264796
104	0x3f82c303	1.0215763
105	0x3f81d78a	1.0143902
106	0x3f7c913d	0.98659116
107	0x3f82b349	1.0210963
108	0x3f8814c4	1.0631337
109	0x3f7a6486	0.97809637
110	0x3f7e4aa1	0.99332625
111	0x3f802ad5	1.0013071
112	0x3f841440	1.031868
113	0x3f7ed84e	0.99548805
114	0x3f7b23a9	0.9810129
115	0x3f79c6d7	0.9756903
116	0x3f7dc720	0.99131966
117	0x3f8715e9	1.0553561
118	0x3f7cb036	0.98706377
119	0x3f755855	0.9583791
120	0x3f84922f	1.0357112
121	0x3f80923b	1.0044626
122	0x3f77c370	0.9678259
123	0x3f7f64ea	0.9976336
124	0x3f855540	1.0416641
125	0x3f817bd9	1.011592
126	0x3f8195fe	1.0123899
127	0x3f7d5052	0.98950684

network.2.bias f4 [128]
0	0xbd09e10b	-0.033661883
1	0x3d01ab87	0.03165772
2	0xbc1a58bd	-0.009420571
3	0xbc8fab08	-0.017537609
4	0x3b44d3f1	0.0030033553
5	0xbb9b774b	-0.0047444454
6	0x3c04e1b5	0.008110453
7	0x3b73308a	0.003710779
8	0xbc2be0fd	-0.010490653
9	0xbc6cd592	-0.014455216
10	0xbcd8202b	-0.026382526
11	0xbcb39c07	-0.021924986
12	0x3bdf8d3f	0.006822258
13	0xbad7678f	-0.0016434061
14	0xbb6c03fe	-0.0036013122
15	0xbcacbc26	-0.02108581
16	0x3be6c70d	0.0070427717
17	0xbcd15544	-0.025553353
18	0x3cb18b28	0.0216728
19	0xbbf2bffc	-0.00740814
20	0x3bdeb9df	0.00679706
21	0xbd31aad9	-0.043375824
22	0xbc33b77f	-0.010969042
23	0x3b26f858	0.0025477614
24	0x3c054ce5	0.008136009
25	0x3c0f74da	0.008755887
26	0x3cbfd4f8	0.023416981
27	0x3d064a6b	0.032785814
28	0xbc689a4d	-0.014196944
29	0xbc07d233	-0.0082898615
30	0x3c892ca5	0.016744921
31	0x3c91f4bb	0.017816892
32	0xbc3232f0	-0.010876402
33	0xbbfaaf37	-0.007650282
34	0x3c0e142a	0.0086718
35	0xbcaed655	-0.021342436
36	0x3afd9b6e	0.001934869
37	0xbc81b431	-0.015832992
38	0x3cd8c2e5	0.02646012
39	0xbc110526	-0.008851325
40	0x3cb5a576	0.022173624
41	0x3cb6051f	0.022219239
42	0xbae7de8e	-0.0017690228
43	0x3b85d123	0.004083769
44	0xba57460d	-0.00082120375
45	0x3cd1466c	0.025546275
46	0xbd1fad20	-0.038983464
47	0x3cf0a031	0.02937326
48	0xb99392f4	-0.00028147514
49	0xbbeb3ce1	-0.007178888
50	0xba455e55	-0.000752901
51	0xbbe42eca	-0.0069635855
52	0xbb59a815	-0.0033211757
53	0xbceef551	-0.02916971
54	0x3cb198a9	0.02167924
55	0xbc04f6a8	-0.008115448
56	0xbd17cb7c	-0.037059292
57	0xbbbbef7d	-0.0057353363
58	0x3cb88056	0.022522133
59	0x3cd8de04	0.026473053
60	0xbc31ca96	-0.010851523
61	0xbc53b1c0	-0.012920797
62	0xbc02b5ab	-0.007977883
63	0xbb0f416d	-0.0021859065
64	0xbcea1e71	-0.028578969
65	0x3d08adf5	0.033369023
66	0xba9f8119	-0.0012169211
67	0xbc30d439	-0.010792785
68	0x3c964a18	0.018345878
69	0xbcb38de1	-0.02191824
70	0x3c5795a7	0.0131582385
71	0x3cb2078d	0.021732116
72	0xb9f12ec3	-0.00046001942
73	0xbbe2386b	-0.006903698
74	0xbbee223a	-0.0072672637
75	0xbbcecd15	-0.006311069
76	0xbcacb9cd	-0.02108469
77	0xbc680d8a	-0.014163384
78	0xbb9c3ecd	-0.0047682286
79	0x3b923eab	0.004463037
80	0x3cb7ef9a	0.022453118
81	0xbc03fac4	-0.008055393
82	0xbbe81591	-0.007082649
83	0x3c40790e	0.011747612
84	0xbc4c5d66	-0.01247344
85	0xbc9ec7b8	-0.019382343
86	0xbcec760c	-0.028864883
87	0xbc11fb21	-0.008909971
88	0xbc24195e	-0.010015814
89	0xbbf1923b	-0.0073721684
90	0xbb6111f1	-0.003434297
91	0x3c4a7cd0	0.012358859
92	0x3c91824b	0.017762324
93	0xbaf38080	-0.0018577725
94	0xbc442e80	-0.011973977
95	0xbcc0564f	-0.023478655
96	0xbc63f222	-0.013912709
97	0xbca49bc5	-0.020093808
98	0xbc192671	-0.009347544
99	0x3aae0a66	0.0013278245
100	0x3caec72e	0.02133521
101	0x3bce5f57	0.0062979865
102	0xbcf4ff06	-0.02990676
103	0xbc5ecee6	-0.013599133
104	0xbccde6b6	-0.025134426
105	0xba18c74f	-0.0005828039
106	0x3bc722ff	0.00607717
107	0xbca6f335	-0.020379642
108	0xbd6ae922	-0.05735124
109	0xbc5c2f5c	-0.013439026
110	0x3c39ba74	0.011335958
111	0x3c4159e5	0.011801218
112	0xbb83c089	-0.0040207547
113	0xbd349fb4	-0.044097617
114	0xbc1ac8c8	-0.009447284
115	0xbc7a40ca	-0.015274236
116	0x3b91516c	0.004434755
117	0xbcf96fd9	-0.03044884
118	0xbc9e25b3	-0.019305086
119	0xbc4a4271	-0.012344942
120	0xbb639ef8	-0.0034732204
121	0xbc9bcc94	-0.019018449
122	0xbcf9239f	-0.030412493
123	0x3d2f070f	0.04273134
124	0xbc914e85	-0.017737636
125	0xbc592a9d	-0.013254789
126	0x3b31c6db	0.0027126584
127	0xbd203590	-0.03911358

network.2.running_mean f4 [128]
0	0x3e699849	0.22811998
1	0x3e44c497	0.19215618
2	0x3e992bb2	0.2991615
3	0x3e998e92	0.29991585
4	0x3e0c40d1	0.136966
5	0x3e91927c	0.2843207
6	0x3e4b20b3	0.19836693
7	0x3dc6f42f	0.09714543
8	0x3eb20a5f	0.34773538
9	0x3e8ab363	0.27089986
10	0x3e9ca582	0.30595022
11	0x3e3249e1	0.17410995
12	0x3e1501c1	0.1455145
13	0x3e3fc699	0.18728103
14	0x3e90f185	0.28309265
15	0x3dc7f48b	0.0976344
16	0x3e4ecb41	0.20194723
17	0x3e2e4921	0.17020084
18	0x3e91149f	0.28336045
19	0x3e9dc844	0.30816853
20	0x3e681341	0.22663595
21	0x3e84535e	0.25844854
22	0x3e583d00	0.2111702
23	0x3e20d87d	0.15707584
24	0x3ea0a223	0.313737
25	0x3d9447d0	0.0724026
26	0x3e2b31d7	0.16718231
27	0x3e8dfc10	0.2773137
28	0x3e135354	0.14387256
29	0x3e2cdc9d	0.16881032
30	0x3e4cd136	0.20001683
31	0x3e2ba350	0.16761518
32	0x3ead5a2f	0.33857867
33	0x3e4358fa	0.1907691
34	0x3e7a8388	0.24464238
35	0x3e80d8ba	0.2516535
36	0x3e597d07	0.212391
37	0x3e1d102a	0.15338197
38	0x3e0c9ad2	0.13730934
39	0x3e95c158	0.29249072
40	0x3da202e6	0.07910709
41	0x3e939d86	0.28831118
42	0x3e4227fe	0.18960568
43	0x3e80b44a	0.2513755
44	0x3eaae3f7	0.33377048
45	0x3eae9a94	0.3410231
46	0x3e6a69be	0.228919
47	0x3e486bef	0.19572423
48	0x3e95b264	0.29237664
49	0x3ea58747	0.3232977
50	0x3e3a2320	0.18177462
51	0x3ea5a817	0.32354805
52	0x3e370073	0.17871265
53	0x3dcc9f95	0.09991375
54	0x3e966081	0.29370502
55	0x3ea2f75d	0.31829348
56	0x3e985136	0.2974946
57	0x3e26001f	0.16210984
58	0x3e56b322	0.20966771
59	0x3e5b8934	0.21439058
60	0x3e8cf0b1	0.27527383
61	0x3e92eb39	0.28695086
62	0x3e870374	0.26369822
63	0x3e738b08	0.23783505
64	0x3ecffe2a	0.406236
65	0x3e214f4f	0.1575291
66	0x3e2d0ec0	0.16900158
67	0x3e68f654	0.22750217
68	0x3e88ba99	0.26704863
69	0x3e9f7f06	0.311516
70	0x3e4566d0	0.19277501
71	0x3e952eb2	0.29137188
72	0x3eb890e4	0.36048043
73	0x3e516a6a	0.2045075
74	0x3e593172	0.21210268
75	0x3ea72099	0.32642058
76	0x3e1c3608	0.15254986
77	0x3ea38010	0.3193364
78	0x3e215f6a	0.15759054
79	0x3dd3bf09	0.103391714
80	0x3e2e975e	0.1704993
81	0x3e12ad55	0.14323933
82	0x3e613e31	0.2199638
83	0x3d85cdff	0.06533431
84	0x3e7cc45a	0.24684277
85	0x3eab0669	0.33403328
86	0x3df993d7	0.12186401
87	0x3ebd09fc	0.3692168
88	0x3db6df7c	0.08929345
89	0x3e52ac9a	0.20573655
90	0x3eab5b75	0.33468214
91	0x3e2eda48	0.17075455
92	0x3e44db6b	0.19224326
93	0x3ebd4699	0.36967924
94	0x3eac3fe4	0.33642495
95	0x3e0d475b	0.13796751
96	0x3e385046	0.17999372
97	0x3e16b053	0.147157
98	0x3e9a9083	0.3018838
99	0x3eb0c91e	0.3452844
100	0x3ea29435	0.31753698
101	0x3e33c13e	0.17554185
102	0x3e9465fd	0.2898406
103	0x3df24ab4	0.11830655
104	0x3e969b1c	0.29415214
105	0x3e311b81	0.17295648
106	0x3e635621	0.22200824
107	0x3e05defc	0.13073343
108	0x3e13d24a	0.14435688
109	0x3eb3786d	0.35052815
110	0x3e89a84d	0.26886216
111	0x3db4958d	0.08817587
112	0x3e5bc29a	0.21460953
113	0x3deede3b	0.11663481
114	0x3e3de00d	0.185425
115	0x3e4c90a8	0.19977057
116	0x3e9afcdd	0.30271044
117	0x3e89cf34	0.26915896
118	0x3d230d2c	0.039807484
119	0x3dc240e2	0.09485032
120	0x3dda3ce2	0.10656144
121	0x3e3c0f2d	0.18365164
122	0x3e4cae42	0.19988349
123	0x3e049958	0.12949121
124	0x3ebb5e5f	0.36595437
125	0x3e091566	0.13387069
126	0x3e51f60d	0.20504017
127	0x3e8459f0	0.25849867

network.2.running_var f4 [128]
0	0x3de6253c	0.11237571
1	0x3db074b9	0.08616013
2	0x3e12317d	0.14276691
3	0x3df88206	0.12134175
4	0x3d7f628c	0.06234984
5	0x3e0afd9c	0.13573307
6	0x3dc0aa19	0.094074436
7	0x3d5e8583	0.054326545
8	0x3e4cc566	0.19997177
9	0x3de7e441	0.11322833
10	0x3e522dd6	0.20525298
11	0x3dff800b	0.12475594
12	0x3dc1e4cb	0.09467467
13	0x3de84a46	0.113422915
14	0x3e22fd41	0.15916921
15	0x3d92c970	0.071673274
16	0x3e2514cd	0.16121216
17	0x3dd20987	0.102557234
18	0x3e102afc	0.14078897
19	0x3e26c855	0.16287358
20	0x3e00b532	0.1256912
21	0x3e316dfb	0.1732711
22	0x3dd05036	0.10171549
23	0x3dd0cb39	0.10195012
24	0x3e1f37a5	0.1554857
25	0x3d54d190	0.051957667
26	0x3de4652c	0.111521095
27	0x3e24eb51	0.16105391
28	0x3dc3cac3	0.09560158
29	0x3da4e924	0.080522805
30	0x3e2a23a3	0.16615157
31	0x3dff2bf3	0.124595545
32	0x3e52434d	0.20533486
33	0x3daf3519	0.085550494
34	0x3e053a66	0.13010558
35	0x3e265d14	0.16246444
36	0x3ddf829e	0.10913585
37	0x3dc1dbea	0.094657734
38	0x3dbcef56	0.09225337
39	0x3e0ef667	0.13961183
40	0x3d4cb0ea	0.049973406
41	0x3e349c10	0.17637658
42	0x3dfae8c4	0.12251428
43	0x3e3d88f9	0.18509282
44	0x3e57ead5	0.21085675
45	0x3e31a0de	0.17346522
46	0x3de8f5df	0.11375021
47	0x3dbae598	0.09125823
48	0x3e37535b	0.17902891
49	0x3e1fa5fe	0.15590665
50	0x3dd29a93	0.10283389
51	0x3e8f2e4a	0.27965003
52	0x3dd6b4f6	0.10483734
53	0x3d8f407b	0.069947205
54	0x3e2c0694	0.16799384
55	0x3e1853ba	0.14875689
56	0x3e4cb1ad	0.19989653
57	0x3dc0841e	0.09400199
58	0x3e0274bb	0.12739842
59	0x3df83131	0.121187575
60	0x3e1b8ccc	0.15190428
61	0x3e05d436	0.13069233
62	0x3e42eb94	0.19035178
63	0x3e55b761	0.20870735
64	0x3e805d4b	0.25071177
65	0x3dc78ada	0.09743281
66	0x3ddddc56	0.10833041
67	0x3dc9b291	0.09848512
68	0x3e116af4	0.14200956
69	0x3e37dbb2	0.17954901
70	0x3df9e83c	0.12202498
71	0x3e0dfa02	0.13864902
72	0x3e63d1cc	0.22248
73	0x3e14bf54	0.14526111
74	0x3df8c590	0.12147057
75	0x3e426b56	0.18986258
76	0x3e0ea90d	0.13931675
77	0x3e46a8d3	0.19400339
78	0x3de52493	0.111886166
79	0x3d7de9c6	0.06199052
80	0x3dab4475	0.083626665
81	0x3de8a432	0.11359443
82	0x3e136637	0.1439446
83	0x3d2ae46b	0.041721743
84	0x3e244b1a	0.16044274
85	0x3e1fc5a1	0.15602733
86	0x3d90ddff	0.070735924
87	0x3e8915fd	0.26774588
88	0x3d23261e	0.039831273
89	0x3dea853a	0.11451192
90	0x3e4e97de	0.2017512
91	0x3dd9a357	0.10626858
92	0x3e21bdf7	0.15795122
93	0x3e4d9208	0.20075238
94	0x3e193496	0.14961466
95	0x3db2f018	0.087372005
96	0x3e1a2dcd	0.15056534
97	0x3dbc52ee	0.09195505
98	0x3e1b1c4d	0.15147515
99	0x3e6d7783	0.23190121
100	0x3e346d11	0.1761973
101	0x3dc7992f	0.09746014
102	0x3e580741	0.21096517
103	0x3dd9850a	0.10621078
104	0x3e2bf59b	0.1679291
105	0x3dc7a866	0.09748916
106	0x3e0e1e2c	0.13878697
107	0x3de089de	0.10963796
108	0x3d9922aa	0.07477315
109	0x3e5256df	0.20540951
110	0x3e08cf12	0.13360241
111	0x3d3aec1d	0.04563533
112	0x3e223d3f	0.15843676
113	0x3dbf2951	0.09334052
114	0x3e0317bc	0.12802023
115	0x3e039f0a	0.12853637
116	0x3e1fe318	0.15613973
117	0x3e1f7fc3	0.15576081
118	0x3cf8ee13	0.03038696
119	0x3d6c9599	0.057759855
120	0x3d85c9b0	0.065326095
121	0x3d96d138	0.07364124
122	0x3dedb6a0	0.116070986
123	0x3d73ecfa	0.05955217
124	0x3e2c7874	0.16842824
125	0x3dc0e8ce	0.09419404
126	0x3de22063	0.110413335
127	0x3e188ad4	0.14896709

network.4.weight f4 [64, 128]
0	0xbc15dcdf	-0.009146898
1	0xbdbb42a0	-0.09143567
2	0xbd3cc470	-0.046085775
3	0x3d7a4a3e	0.06110596
4	0xbc9fae9c	-0.01949244
5	0xbd6e086e	-0.058113508
6	0x3ce63d7f	0.028105495
7	0x3bc57dff	0.006026983
8	0xbc5906d0	-0.013246253
9	0x3cd4bdd5	0.025969425
10	0x3d2ba3ae	0.041904144
11	0x3ce2f64c	0.027705334
12	0x3d38343c	0.04497169
13	0x3de229a4	0.110430986
14	0x3d959e28	0.073055565
15	0xbcdd40ce	-0.02700844
16	0xbd1b0351	-0.03784496
17	0xbc6eee84	-0.014583234
18	0xbd568e64	-0.052381888
19	0xbd015ca9	-0.03158251
20	0x3bad74d0	0.005293466
21	0x3d048100	0.032349586
22	0xbc3a7cc4	-0.0113822855
23	0xbd3a883c	-0.04554008
24	0xbd0dc37b	-0.034610253
25	0xbd46cea9	-0.04853693
26	0xbd448047	-0.047973897
27	0x3c0dc693	0.008653301
28	0x3ce54692	0.027987752
29	0xbd215e04	-0.0393963
30	0x3d209972	0.039208837
31	0x3d39ce9c	0.045363054
32	0x3d15a708	0.036536247
33	0xbc37d7c1	-0.011220873
34	0xbdc5270c	-0.09626588
35	0xbd963d23	-0.0733588
36	0xbcc7009f	-0.024292288
37	0x3db7fc61	0.08983684
38	0x3d2aa312	0.041659422
39	0x3dc142b9	0.094365545
40	0x3c46ef68	0.01214204
41	0xbd61ab17	-0.055094805
42	0xbd3fa3ce	-0.046787076
43	0xbc35cb96	-0.011095902
44	0xbc932465	-0.01796169
45	0xbc2d1a89	-0.0105654085
46	0xbde56bb4	-0.11202183
47	0x3c212843	0.009836259
48	0xbda18d85	-0.07888321
49	0xbc6e2855	-0.014535983
50	0x3db1810d	0.086671926
51	0x3be3096d	0.006928614
52	0x3d54ee04	0.051984802
53	0x3dffeb7a	0.124960855
54	0x3da76f97	0.08175581
55	0xbb9341d6	-0.0044939322
56	0x3ca45262	0.020058814
57	0xbce4d025	-0.027931282
58	0x3cb9ab5a	0.022664715
59	0xbc50783d	-0.01272398
60	0x3c6aff23	0.014343056
61	0x3df567e3	0.119827054
62	0x3c9f705a	0.019462753
63	0xbb94f08d	-0.0045452775
64	0x3d8eab71	0.069662936
65	0x3d1c8de6	0.038221262
66	0xbd865fbb	-0.06561228
67	0xbd4a3673	-0.049368333
68	0x3d33c42f	0.043888267
69	0xbd0538ef	-0.032525
70	0x3e00db24	0.12583596
71	0xbcffd9f3	-0.031231856
72	0x3da82e21	0.082119234
73	0x3d3fe8d9	0.04685292
74	0xbcc21da9	-0.023695784
75	0x3d69825c	0.057009086
76	0xbdab028a	-0.08350094
77	0xbd8a3bdd	-0.06749699
78	0x3d169ae6	0.036768816
79	0xbbc17636	-0.0059039844
80	0xbd573dcb	-0.052549165
81	0x3d7b1b7e	0.061305515
82	0xbd27e11f	-0.040986177
83	0xbdf7980d	-0.12089548
84	0xbdca014c	-0.098635286
85	0xbd2e0951	-0.042489354
86	0xbb99ad5c	-0.0046898555
87	0x3ce4c99a	0.027928162
88	0xbaeed9d7	-0.001822288
89	0x3d389d92	0.045072146
90	0x3d1b2c8b	0.037884276
91	0x3b2afe12	0.002609138
92	0xbafc175d	-0.0019233037
93	0xbb9159c3	-0.0044357493
94	0x3ded2ff0	0.11581409
95	0xbd1b4bce	-0.03791409
96	0x3dbd17eb	0.092330776
97	0xbd59dfe0	-0.05319202
98	0x3c87f43a	0.016595948
99	0xbbeac4db	-0.0071645803
100	0x3d62cf8b	0.05537371
101	0xbc3aabe1	-0.011393518
102	0xbc57770a	-0.01315094
103	0x3c0626d7	0.008187971
104	0xbc10753c	-0.008817013
105	0x3c68c82c	0.014207881
106	0xbd286d29	-0.04111973
107	0x3c48531b	0.012226845
108	0x3ced2b03	0.028951174
109	0x3c2ce480	0.0105525255
110	0xbbcf31ce	-0.006323076
111	0xbc217735	-0.009855081
112	0x3d8b6611	0.06806577
113	0xbd67a546	-0.0565541
114	0x3c716dfd	0.014735696
115	0xbb8ab467	-0.0042329314
116	0x3d9e42eb	0.07727607
117	0xbda7df87	-0.08196931
118	0xbcd77926	-0.026302885
119	0x3d25f887	0.040520217
120	0xbbed54a6	-0.007242757
121	0x3d836deb	0.064174496
122	0xbd13ce67	-0.036085512
123	0x3d8b5b5b	0.06804534
124	0x3cfc17da	0.030773092
125	0xbd95680b	-0.07295235
126	0xbdb9b6ec	-0.09068093
127	0xbdaeb805	-0.08531193
128	0x3c37e87e	0.011224864
129	0xbda77366	-0.081763074
130	0x3d272464	0.04080619
131	0x3c8541dd	0.016266758
132	0x3d1269e9	0.035745535
133	0x3de591e7	0.11209469
134	0xbcaf2687	-0.021380676
135	0xbd3eb575	-0.04655977
136	0xbb9cd8f2	-0.004786604
137	0x3d91129b	0.07083627
138	0x3c0f9f60	0.008766025
139	0x3cab20ed	0.020889724
140	0xbd3067ef	-0.04306787
141	0x3d119ebf	0.035551783
142	0xbdad266d	-0.08454595
143	0x3c695077	0.014240376
144	0xbca96c5c	-0.020681553
145	0x3d368acb	0.044565957
146	0x3dd6f4db	0.10495921
147	0x3d270f9d	0.040786374
148	0xbd44715b	-0.047959667
149	0x3ab1bfa2	0.0013561139
150	0x3d3b3c6a	0.045711912
151	0xbcc43edf	-0.02395576
152	0xbd741566	-0.05959072
153	0xbcfc5b6d	-0.030805314
154	0x3d759be2	0.059963115
155	0x3d2b6240	0.041841745
156	0x3d4e97d5	0.050437767
157	0xbdb3115f	-0.08743548
158	0x3c9eff65	0.019408891
159	0xbc8afa9c	-0.016965203
160	0xbca4addb	-0.020102432
161	0x3d8668e2	0.065629736
162	0xbaf71915	-0.001885208
163	0xbc8ddc53	-0.017316973
164	0xbdb96cbd	-0.09053943
165	0xbbf412fb	-0.0074485517
166	0xbbc4c07c	-0.0060043912
167	0xbd97558d	-0.073893644
168	0xbda2415c	-0.079226226
169	0x3db6d290	0.0892688
170	0xbd8b59b9	-0.068042226
171	0xbd9cbb92	-0.07652964
172	0xbc646f10	-0.013942495
173	0x3da1fe60	0.07909846
174	0xbca9e6e5	-0.020739982
175	0xbcd90166	-0.026489925
176	0x3d0d9a51	0.034570996
177	0xbc173404	-0.00922871
178	0x3c808524	0.015688486
179	0x3d309608	0.04311183
180	0x3c1a2a88	0.009409554
181	0x3e030ff8	0.1279906
182	0x3d0beaca	0.03415946
183	0x3b570608	0.0032809991
184	0xbd5b1fff	-0.05349731
185	0xbd047669	-0.032339487
186	0xbda41c22	-0.080131784
187	0x3d27c4eb	0.04095928
188	0x3c80c059	0.015716719
189	0x399cccaf	0.0002990714
190	0xbabb4bd2	-0.0014289564
191	0x3d1489ba	0.03626416
192	0xbd60109d	-0.054703344
193	0x3ca75ada	0.020429064
194	0xbb2b3874	-0.0026126178
195	0x3da7059b	0.08155366
196	0xbd5bc5a3	-0.053655278
197	0xbd9e5b58	-0.07732266
198	0x3cf61073	0.03003714
199	0xbdb28294	-0.08716312
200	0x3baf4057	0.005348246
201	0xbd73fef9	-0.059569333
202	0x3cd80fc6	0.026374709
203	0x3b4e1ab1	0.0031449015
204	0xbd01c22b	-0.031679314
205	0xbd91d68d	-0.071210004
206	0xbd72e248	-0.05929783
207	0x3d6e0fda	0.058120586
208	0xbc5bc9e5	-0.013414835
209	0x3d614000	0.054992676
210	0xbcd0aac6	-0.025472056
211	0xbc3573ae	-0.0110749435
212	0x3d494c26	0.049144886
213	0x3d31448c	0.043278262
214	0x3d801ffa	0.06256099
215	0x3bdcc722	0.0067376057
216	0x3d9c881c	0.07643148
217	0x3d3667d5	0.044532616
218	0x3d986082	0.074402824
219	0xbdb19c37	-0.08672374
220	0xbc1b25ae	-0.009469433
221	0xbd77495f	-0.060372707
222	0x3d5e002f	0.054199394
223	0x3d2172d5	0.039416153
224	0xbd0a8c2b	-0.03382508
225	0xbcd1cfbf	-0.025611756
226	0x3daefda4	0.08544472
227	0xbd4c8b62	-0.049937613
228	0x3dc589c7	0.096454196
229	0xbd0ceeed	-0.034407545
230	0xbddb5909	-0.107103415
231	0x3d896b95	0.06709973
232	0x3d899f74	0.067198664
233	0x3d373cbd	0.04473566
234	0xbd219698	-0.039450258
235	0xbd6b2b0c	-0.0574141
236	0xbd32733a	-0.04356692
237	0xbe02a751	-0.12759139
238	0x3d53ba44	0.05169131
239	0xbcba9eb5	-0.022780756
240	0x3d314291	0.043276373
241	0xbd20a886	-0.039223216
242	0x3d884124	0.066530496
243	0xbd6a1e8d	-0.05715804
244	0x3bb5d8e8	0.005549539
245	0xbd2ee5fa	-0.04269979
246	0x3ca5a6e1	0.020221176
247	0xbb64d54f	-0.003491718
248	0x3c9e2fff	0.019309996
249	0xbae7be2d	-0.0017680578
250	0xbdb1c238	-0.086796224
251	0x3c602c30	0.01368241
252	0x3cf359c4	0.02970589
253	0x3d9b5307	0.075841956
254	0xbda3ff36	-0.08007662
255	0x3d8700e4	0.06591967

network.4.bias f4 [64]
0	0x3cc9b3be	0.02462184
1	0x3d32817e	0.043580525
2	0x3d8081e1	0.062747724
3	0x3dcfb968	0.10142785
4	0x3d837455	0.06418673
5	0x3dca58d5	0.098802246
6	0x3de57dcc	0.112056345
7	0x3cead985	0.028668175
8	0xbc6e9732	-0.014562415
9	0xbc6130e4	-0.013744567
10	0x3b83cba2	0.0040220777
11	0xbd1aab08	-0.037760764
12	0x3bca4490	0.006172724
13	0x3dd38155	0.103274025
14	0x3d6eda75	0.058313806
15	0xbc204c36	-0.009783795
16	0xbcb332a0	-0.021874726
17	0x3d5de297	0.05417117
18	0x3b3f6f3f	0.0029210595
19	0x3c62c3b2	0.013840603
20	0x3b8af28a	0.0042403387
21	0x3c94f0a3	0.01818115
22	0xbc25ea09	-0.010126599
23	0xbd2e9171	-0.042619172
24	0x3c58024c	0.013184141
25	0xbd93c825	-0.07215909
26	0x3dadf562	0.08494069
27	0x3e097ecb	0.13427274
28	0x3bf39da3	0.0074345632
29	0x3d92a95d	0.0716121
30	0xbcf3da63	-0.02976722
31	0xbdb4ae97	-0.08822363
32	0xbbde3f89	-0.0067824763
33	0xbd1d81c1	-0.03845382
34	0x3da7544e	0.08170377
35	0xbda9d8cf	-0.08293306
36	0x3c3d2ee9	0.011546829
37	0x3c48e525	0.012261664
38	0x3de5d91b	0.1122305
39	0x3dac53f0	0.08414447
40	0x3e03dcff	0.12877272
41	0x3e18449f	0.14869927
42	0xbd32a65e	-0.04361569
43	0x3c4609fa	0.01208734
44	0x3db356c4	0.087567836
45	0x3d82fd2d	0.06395946
46	0x3caf87ab	0.021426996
47	0xbd0a7939	-0.033807013
48	0xbd439260	-0.047747016
49	0x3cb6b9e7	0.022305442
50	0x3df2e46a	0.11859973
51	0x3c20a4ee	0.009804947
52	0x3e036a41	0.12833501
53	0x3cd162f2	0.025559876
54	0x3db9b8e4	0.09068468
55	0xbd97ebb5	-0.074180044
56	0x3d9da981	0.07698346
57	0xbcc3e752	-0.023914013
58	0xbc4dc134	-0.01255827
59	0x3df43170	0.11923492
60	0x3ca149fa	0.019688595
61	0x3de37cfa	0.11107822
62	0x3de600e2	0.11230637
63	0x3d72eb37	0.05930635

network.6.weight f4 [64]
0	0x3f7e16d0	0.9925356
1	0x3f836956	1.0266521
2	0x3f85df2f	1.0458735
3	0x3f83dc12	1.0301535
4	0x3f76caea	0.9640337
5	0x3f880c3e	1.0628736
6	0x3f83194d	1.0242096
7	0x3f7d14c1	0.9885979
8	0x3f829c72	1.0203993
9	0x3f7f77c8	0.99792147
10	0x3f801a6a	1.0008061
11	0x3f75d08c	0.9602134
12	0x3f8a09dc	1.0784259
13	0x3f7f01cf	0.99612135
14	0x3f7bebf2	0.984069
15	0x3f757699	0.9588409
16	0x3f7597cb	0.9593474
17	0x3f82bba0	1.0213509
18	0x3f7bc703	0.9835054
19	0x3f78480d	0.9698494
20	0x3f7a44db	0.97761315
21	0x3f8324e2	1.0245631
22	0x3f7c834a	0.9863783
23	0x3f710c66	0.94159544
24	0x3f6dbac6	0.9286312
25	0x3f83b0e8	1.0288363
26	0x3f74c68c	0.9561546
27	0x3f8a9bba	1.0828774
28	0x3f80e332	1.0069335
29	0x3f82d753	1.0221962
30	0x3f813b40	1.0096207
31	0x3f8062fb	1.0030206
32	0x3f829f04	1.0204778
33	0x3f7bd772	0.9837562
34	0x3f76902e	0.9631375
35	0x3f7a9d78	0.9789653
36	0x3f739ca4	0.9516089
37	0x3f801092	1.0005057
38	0x3f802c32	1.0013487
39	0x3f7daeea	0.9909502
40	0x3f7c1c59	0.98480755
41	0x3f83edf8	1.0306997
42	0x3f7eaf07	0.9948582
43	0x3f833dcd	1.0253235
44	0x3f7e2077	0.9926829
45	0x3f7cf11c	0.98805404
46	0x3f871437	1.0553044
47	0x3f879f51	1.0595495
48	0x3f792fd8	0.9733863
49	0x3f719b08	0.94377184
50	0x3f7677c9	0.9627653
51	0x3f7d041b	0.9883439
52	0x3f7e1fd3	0.9926731
53	0x3f80ed93	1.0072502
54	0x3f711823	0.94177455
55	0x3f814cec	1.01016
56	0x3f848031	1.0351621
57	0x3f783c96	0.96967447
58	0x3f80d552	1.00651
59	0x3f7f038a	0.99614775
60	0x3f7b58da	0.9818245
61	0x3f793608	0.9734807
62	0x3f80c74c	1.006082
63	0x3f6edde4	0.9330733

network.6.bias f4 [64]
0	0xbd2787ea	-0.040901102
1	0xbdfe3151	-0.1241175
2	0xbd28484c	-0.041084573
3	0x3c18e017	0.009330771
4	0xbc7adc97	-0.015311382
5	0xba4ae6eb	-0.0007740098
6	0x3db7614a	0.08954103
7	0x3dcefb8c	0.101065725
8	0xbd2ad9d5	-0.041711647
9	0x3bcfd637	0.006342675
10	0xbd871de9	-0.06597502
11	0x3d9d5302	0.07681848
12	0xbd846d8a	-0.064662054
13	0x3c89dc2a	0.016828615
14	0xbd52874f	-0.05139857
15	0x3ca0ab4c	0.01961293
16	0x3dac3025	0.0840762
17	0xbc6bc60f	-0.014390483
18	0xbc48a69a	-0.012246752
19	0xbd7a9049	-0.061172757
20	0x3d915db7	0.07097953
21	0xbd496f4f	-0.049178418
22	0xbc10e558	-0.008843742
23	0xbb116177	-0.0022183338
24	0x3c3160dd	0.010826317
25	0xbc49185e	-0.012273876
26	0x3c012ed9	0.0078847045
27	0xba96e4cf	-0.0011512282
28	0xbd7daa20	-0.061929822
29	0x3ca09057	0.019600077
30	0xbd1cbbd7	-0.038265076
31	0x3cea0bfe	0.028570171
32	0xbb0d8c03	-0.0021598346
33	0xbd8d3171	-0.06894196
34	0xbd8f1c4e	-0.069878206
35	0x3d8d8e96	0.06911962
36	0x3ccdf52c	0.025141321
37	0xbc8ff085	-0.017570743
38	0x3d13be45	0.036070127
39	0x3d874f91	0.06606973
40	0x3db4099b	0.087908946
41	0xbc71e160	-0.014763206
42	0x3ce010ad	0.027351702
43	0xbc94cc9a	-0.018163968
44	0xbd5c47d1	-0.053779427
45	0xbd007748	-0.031363755
46	0x3c376caa	0.011195341
47	0xbccaaf4b	-0.02474179
48	0xbd3360df	-0.043793555
49	0xbd6c1d09	-0.057644878
50	0xbd987aaf	-0.07445275
51	0x3bc5fba1	0.0060419594
52	0x3d2f3fc0	0.042785406
53	0xbd0e8c2f	-0.03480166
54	0xbc619b2c	-0.013769906
55	0xbcdfefbc	-0.027335994
56	0xbc6a104b	-0.014286111
57	0x3d155c61	0.036465053
58	0xbc4a110e	-0.012333168
59	0x3ca7f421	0.020502152
60	0xbd00cb53	-0.031443905
61	0x3d0ec4fd	0.03485583
62	0x3d57a686	0.052649044
63	0xbc5557de	-0.013021437

network.6.running_mean f4 [64]
0	0x3ed23e31	0.41063073
1	0x3f013865	0.50476676
2	0x3ede8706	0.4346239
3	0x3f0194cb	0.50617665
4	0x3ed12c80	0.40854263
5	0x3f08c3dd	0.53423864
6	0x3ee75805	0.4518434
7	0x3ec413a0	0.38296223
8	0x3ec2c3cf	0.38040015
9	0x3ee7f3ae	0.453031
10	0x3eed6086	0.46362704
11	0x3eb6201a	0.35571367
12	0x3ee6aabb	0.45052132
13	0x3ec21445	0.3790609
14	0x3ec1baa5	0.3783771
15	0x3eb8d4bf	0.36099812
16	0x3eb9b816	0.3627326
17	0x3ed64462	0.41849047
18	0x3eb794f5	0.35855833
19	0x3ed20fa2	0.41027552
20	0x3ecc9434	0.3995682
21	0x3ed5e588	0.4177668
22	0x3ecbaccb	0.39780268
23	0x3ec2bb19	0.3803337
24	0x3ea6b7ee	0.32562202
25	0x3ee46182	0.44605643
26	0x3eded487	0.4352152
27	0x3ef1641d	0.47146693
28	0x3ebb428f	0.36574218
29	0x3ed7a221	0.42115882
30	0x3ee3ad39	0.44468096
31	0x3ec230e1	0.37927917
32	0x3eb8f6da	0.36125833
33	0x3ea14f22	0.31505686
34	0x3eeb308a	0.4593547
35	0x3ea8f889	0.33002117
36	0x3eb74285	0.35792938
37	0x3e99f722	0.3007136
38	0x3ef297d3	0.47381458
39	0x3ecd848c	0.40140188
40	0x3eda9d0e	0.42697948
41	0x3f06a6c1	0.52598196
42	0x3e93f360	0.28896618
43	0x3ee1f384	0.441311
44	0x3ecf3b28	0.4047482
45	0x3eeb8455	0.459994
46	0x3ef24532	0.47318417
47	0x3ed42750	0.41436243
48	0x3ecbf369	0.39834145
49	0x3ea67dae	0.3251776
50	0x3ed3d565	0.41373745
51	0x3ee0469f	0.4380388
52	0x3ef653eb	0.481109
53	0x3ee8c358	0.45461535
54	0x3eb14cd2	0.34628922
55	0x3ebe68d7	0.3718936
56	0x3f0b8f7f	0.5451583
57	0x3eb37d3b	0.3505648
58	0x3eaf76fb	0.34270462
59	0x3eded38c	0.43520772
60	0x3e9cd513	0.30631313
61	0x3f005027	0.501223
62	0x3ef3ea88	0.4763987
63	0x3ec6a668	0.38798833

network.6.running_var f4 [64]
0	0x3ef0f024	0.47058213
1	0x3f2a7865	0.6658996
2	0x3f035a4c	0.5130966
3	0x3f10dab7	0.5658373
4	0x3ef26da0	0.47349262
5	0x3f3558a4	0.7083838
6	0x3ef95522	0.48697764
7	0x3ed9b144	0.42518055
8	0x3ee1aa22	0.44075114
9	0x3f0c77d6	0.54870355
10	0x3f0fa2f3	0.56108016
11	0x3ec21d82	0.37913138
12	0x3f1d928a	0.61551726
13	0x3eba5938	0.36396194
14	0x3ebbc4ff	0.36673734
15	0x3ed03a3a	0.40669423
16	0x3ec32549	0.38114384
17	0x3f01120d	0.5041817
18	0x3eb545d9	0.35404852
19	0x3efbed0a	0.49204284
20	0x3efeb56d	0.49747792
21	0x3f0a1311	0.53935343
22	0x3ec22fe9	0.37927178
23	0x3ee9005a	0.4550808
24	0x3e98b2b2	0.29823834
25	0x3f0d8be5	0.5529159
26	0x3f061a93	0.523843
27	0x3eed6ca0	0.46371937
28	0x3ed20921	0.4102259
29	0x3ede6fd8	0.43444705
30	0x3f217579	0.63069874
31	0x3f01bcea	0.50678885
32	0x3eb1c3fe	0.34719843
33	0x3ed6ecad	0.41977444
34	0x3f01f9df	0.507719
35	0x3ed6982b	0.4191297
36	0x3eb37a05	0.3505403
37	0x3e95b2bc	0.29237926
38	0x3f0b0efd	0.54319745
39	0x3ec72d21	0.38901618
40	0x3ee00496	0.437535
41	0x3f18f745	0.59752303
42	0x3e92d133	0.2867523
43	0x3f118da2	0.5685674
44	0x3ecc137f	0.39858624
45	0x3f04d91e	0.51893795
46	0x3f19841a	0.59967196
47	0x3eec7232	0.46180874
48	0x3ed2f463	0.41202077
49	0x3ea022dc	0.31276596
50	0x3ec4ec0e	0.38461345
51	0x3f1f2f4d	0.6218155
52	0x3ef1176e	0.47088188
53	0x3f06a12e	0.5258969
54	0x3eab8d07	0.33506033
55	0x3f01b12f	0.50660986
56	0x3f462779	0.7740398
57	0x3ec0375f	0.37542245
58	0x3ec99f6b	0.3937944
59	0x3ebf52d1	0.3736787
60	0x3ea69908	0.3253863
61	0x3f069ea6	0.5258583
62	0x3f0a716e	0.5407933
63	0x3eba3f77	0.36376545

network.8.weight f4 [32, 64]
0	0x3d8c8353	0.068609856
1	0x3b21b436	0.0024674064
2	0xbe1bf0ab	-0.15228526
3	0xbd2e4bee	-0.04255288
4	0xbd9bd767	-0.07609444
5	0x3dab2809	0.083572455
6	0x3d0f407d	0.03497361
7	0x3d8a8f80	0.06765652
8	0xbe0d0d61	-0.13774635
9	0xbdc4d364	-0.09610632
10	0x3b24c5b2	0.002514225
11	0xbd7bee1b	-0.061506372
12	0xbc98ddfc	-0.018660538
13	0xbddd96a2	-0.108197466
14	0xbc65be10	-0.014022365
15	0x3bb092bc	0.005388586
16	0x3dbe9c32	0.09307136
17	0xbdf87c45	-0.121330775
18	0x3d45ac72	0.04826016
19	0xbdaeae34	-0.0852932
20	0xbb5242bb	-0.0032083231
21	0xbd3a4125	-0.045472283
22	0x3d7c13ad	0.0615422
23	0xbe03d1f4	-0.1287306
24	0x3cc5a40d	0.024126077
25	0xbdaa939c	-0.083289355
26	0xbd42d26b	-0.04756395
27	0xbd8f3042	-0.06991626
28	0xbdd1dce3	-0.10247209
29	0xbda9216f	-0.0825833
30	0xbddf3514	-0.10898796
31	0x3cf5c958	0.030003235
32	0xbcb84661	-0.022494497
33	0x3d19c152	0.03753788
34	0x3d233941	0.039849523
35	0x3e0a02e6	0.13477668
36	0x3d3ac10c	0.04559426
37	0xbcbc789d	-0.023006732
38	0xbb41ae23	-0.0029553256
39	0x3b54020a	0.0032349848
40	0xbc60de9c	-0.013724949
41	0x3dda4914	0.1065847
42	0x3de384fc	0.11109349
43	0xbb75a29e	-0.003748096
44	0x3c53d56f	0.0129293045
45	0x3d88249a	0.06647606
46	0xbcc0bd77	-0.023527844
47	0xbd915f1a	-0.07098217
48	0xbdbe6bd1	-0.09297908
49	0xbd236d66	-0.039899252
50	0xbda678da	-0.08128519
51	0x3d59a540	0.05313611
52	0xbe0620c3	-0.13098435
53	0xbcf14f95	-0.029456893
54	0x3dad4edd	0.084623076
55	0xbd85d314	-0.065344006
56	0xbb62edfc	-0.0034626713
57	0xbe1b4356	-0.15162405
58	0x3da5eabe	0.08101414
59	0xbd30048c	-0.042973086
60	0x3c6f4d6f	0.014605864
61	0xbdd4e157	-0.10394543
62	0x3de8e2d8	0.11371392
63	0x3987239d	0.0002577574
64	0xbd34a8b5	-0.044106204
65	0xbd9866b3	-0.07441463
66	0xbde528ea	-0.11189444
67	0xbe128aa2	-0.14310697
68	0x3d9584bd	0.073007084
69	0xbd90417e	-0.07043742
70	0xbd3f0776	-0.046637975
71	0x3dddfdaa	0.10839398
72	0xbdf190eb	-0.11795219
73	0x3dd626f2	0.10456647
74	0x3c8f27d0	0.017475039
75	0x3dc3ee7b	0.09566971
76	0xbdefeea8	-0.11715442
77	0x3df41b17	0.119192295
78	0xbd89d889	-0.06730754
79	0xbda05441	-0.0782857
80	0xbd85f939	-0.06541676
81	0xbd91103b	-0.07083174
82	0xbd536b62	-0.05161608
83	0x3dbd1aa0	0.09233594
84	0x3df0b151	0.117525704
85	0x3d1e10d7	0.03859028
86	0x3dd144be	0.1021819
87	0x3da87ec0	0.08227301
88	0x3cca91ef	0.02472779
89	0x3dff8233	0.124760054
90	0xbd97936c	-0.07401165
91	0xbe17fffc	-0.14843744
92	0x3d0490f2	0.032364793
93	0x3d916cdd	0.07100842
94	0xbd726079	-0.059174035
95	0xbd6c4afa	-0.05768869
96	0xbce4df1b	-0.027938416
97	0xbd9e2066	-0.07721023
98	0xbd6f1260	-0.058367133
99	0x3d82b70e	0.06382571
100	0xbcbce0cc	-0.02305641
101	0xbde2a2b3	-0.11066189
102	0x3debd948	0.115160525
103	0xbda28a94	-0.07936588
104	0xbda4aec7	-0.08041149
105	0x3df4ced6	0.11953513
106	0xbd56ebf0	-0.0524711
107	0xbdd085a4	-0.1018174
108	0x3d2f1c5a	0.042751648
109	0xbe1192c8	-0.14216149
110	0x3c4f4dd3	0.012652832
111	0xbc45a5bf	-0.012063443
112	0xbdc373c8	-0.09543568
113	0xbdc8d9c3	-0.0980716
114	0xbd43498e	-0.04767757
115	0x3d848090	0.06469834
116	0x3db2ba12	0.08726896
117	0x3d575809	0.05257419
118	0x3d7a536a	0.061114706
119	0x3d85be66	0.06530456
120	0xbdc3e851	-0.09565795
121	0xbb6a5f0e	-0.0035762223
122	0x3da530e5	0.080659665
123	0x3d8340fd	0.0640888
124	0x3df8adcd	0.12142525
125	0xbda8582d	-0.08219943
126	0x3da98694	0.08277622
127	0xbd17348f	-0.03691536
128	0x3b2bb9a5	0.0026203182
129	0xbde71a3d	-0.112843014
130	0xbd8507e9	-0.06495649
131	0xbd4e4978	-0.050363034
132	0xbdc70ba6	-0.09719019
133	0x3d893c63	0.06700971
134	0x3d39b829	0.045341644
135	0x3df87129	0.121309586
136	0x3d8d1539	0.068888135
137	0xbcb0110d	-0.021492505
138	0xbde078c0	-0.10960531
139	0x3d59f7b1	0.053214733
140	0xbd163a05	-0.036676425
141	0x3cd7f370	0.026361197
142	0x3d9829f1	0.07429875
143	0x3d842c5b	0.06453773
144	0x3da97928	0.08275062
145	0xbdf3adff	-0.118984215
146	0x3d258246	0.04040744
147	0x3cc7e982	0.024403337
148	0x3ddd5991	0.10808099
149	0xbdeb9058	-0.11502141
150	0x3bb8dd0f	0.0056415866
151	0xbdb0b392	-0.08628
152	0xbd94b3de	-0.072608694
153	0xbdca9641	-0.0989194
154	0xbd358311	-0.044314448
155	0x3d710b06	0.058848403
156	0xbc238872	-0.009981262
157	0x3d1df086	0.03855946
158	0xbdbd94f3	-0.092569254
159	0xbd24715c	-0.04014717
160	0xbca9dddd	-0.020735675
161	0xbdc4a741	-0.09602214
162	0xbdd9f567	-0.1064251
163	0x3ce72f85	0.028220901
164	0xbd34f0f9	-0.044175122
165	0x3cce6875	0.025196293
166	0xbe0261d3	-0.1273263
167	0x3e19cfe3	0.15020709
168	0x3d180480	0.037113667
169	0x3d66de8e	0.05636459
170	0xbd26b9b6	-0.04070445
171	0xbdb5d11a	-0.088777736
172	0xbd4525e6	-0.048131846
173	0xbdafd512	-0.08585562
174	0x3d9f9ef8	0.07793993
175	0xbd0ae369	-0.03390828
176	0x3d93fc86	0.072258994
177	0xbd4625f9	-0.048376057
178	0xbdf4c437	-0.119514875
179	0x3dc0dac9	0.0941673
180	0x3d56e450	0.05246383
181	0x3d7c3df1	0.06158251
182	0x3c561ed2	0.013068872
183	0x3c3a92e7	0.011387563
184	0x3da45205	0.080234565
185	0x3d52673d	0.051367987
186	0xbc96b35b	-0.01839607
187	0xbd8fb896	-0.07017629
188	0x3ccdbea7	0.025115324
189	0x3de73fdd	0.11291478
190	0x3db9a25e	0.09064172
191	0x3dbdc800	0.092666626
192	0xbd4f8a55	-0.050669033
193	0xbc679d3e	-0.014136611
194	0xbc783c61	-0.015151114
195	0xbd190e09	-0.0373669
196	0xbdb103c1	-0.08643294
197	0xbb87ae3d	-0.004140644
198	0x3d24f737	0.040274825
199	0x3e0ee42c	0.13954228
200	0xbd6eccff	-0.05830097
201	0x3d7205ec	0.05908768
202	0x3e1168ec	0.14200181
203	0x3d32799b	0.043573003
204	0xbc544c0f	-0.012957587
205	0x3bea37f9	0.0071477857
206	0xbc6a3f52	-0.014297323
207	0xbdd1d8b5	-0.10246412
208	0xbd84e692	-0.0648929
209	0x3d0d783a	0.034538485
210	0x3caa36d7	0.020778103
211	0xbda9e1b1	-0.08295
212	0x3e09b1ea	0.13446775
213	0xbdb6a709	-0.08918578
214	0xbd8f9f9b	-0.07012864
215	0xbe186f48	-0.148862
216	0xbcc8ef16	-0.024528068
217	0x3deaff4e	0.11474477
218	0x3dc4b099	0.09603996
219	0xbddb7627	-0.10715895
220	0x3d69d9cb	0.05709247
221	0x3cc7de57	0.024398012
222	0x3d8ccba9	0.068747826
223	0xbe06be52	-0.13158539
224	0x3ce1476b	0.027499875
225	0xbe04f2d5	-0.12983258
226	0x3cc0a7a4	0.023517437
227	0x3db1a0fa	0.08673282
228	0x3d017865	0.031608958
229	0x3d019206	0.0316334
230	0x3dc40479	0.095711656
231	0x3d7cd8d3	0.061730217
232	0xbca24e1d	-0.019812638
233	0x3cb866de	0.022509988
234	0xbdce1a71	-0.10063637
235	0xbd1d5e78	-0.03842017
236	0xbdf1c9a7	-0.1180604
237	0x3d9cc8b1	0.07655466
238	0xbd57e188	-0.052705318
239	0xbd824b17	-0.063619785
240	0xbdd50d95	-0.10402981
241	0x3d9373df	0.07199835
242	0x3c638d5f	0.013888686
243	0x3d28fa9a	0.041254617
244	0xb9ca40dd	-0.0003857677
245	0x3de3c5d8	0.1112172
246	0xbdf780e9	-0.120851345
247	0xbdac1537	-0.08402484
248	0x3c07fb6d	0.008299691
249	0xbe04ab9a	-0.12956086
250	0xbe015f85	-0.12634094
251	0x3d98dcda	0.07463999
252	0xbc40b33a	-0.011761481
253	0x3dd66c8c	0.104699224
254	0x3cbd4595	0.023104468
255	0xbdbcc832	-0.09217872

network.8.bias f4 [32]
0	0x3e0e43e6	0.13893089
1	0x3d481692	0.04884965
2	0x3e1f81a3	0.15576796
3	0xbcb08d5e	-0.021551784
4	0x3ce0b497	0.027429862
5	0x3e3baa00	0.18326569
6	0x3dfa7f3a	0.12231298
7	0x3dcb1ce1	0.099176176
8	0x3e1469cc	0.14493483
9	0x3df5e0a9	0.12005741
10	0x3cc266f3	0.02373073
11	0x3da336c1	0.07969428
12	0x3e32451b	0.17409174
13	0x3c4e6300	0.012596846
14	0x3bd1df0b	0.0064047626
15	0x3e1ed43b	0.15510647
16	0x3dd3ab4b	0.10335406
17	0x3e375b85	0.17906006
18	0x3d9a9c5c	0.075493544
19	0xbdabce5e	-0.08388971
20	0x3da237c1	0.079207905
21	0xbdbd97d6	-0.09257476
22	0x3cc600d9	0.024170326
23	0x3cf9e0d5	0.030502716
24	0xbd10c929	-0.03534809
25	0xbd560bbc	-0.052257285
26	0x3dfc9ea7	0.12334948
27	0xbd11afd7	-0.035568085
28	0x3e01397d	0.12619586
29	0x3e02deb0	0.12780261
30	0xbde96570	-0.11396301
31	0xbd5965ea	-0.05307571

network.10.weight f4 [32]
0	0x3f761e69	0.9614015
1	0x3f88cd09	1.0687572
2	0x3f8184d9	1.0118667
3	0x3f819595	1.0123774
4	0x3f7c0c56	0.98456323
5	0x3f759970	0.9593725
6	0x3f847ed7	1.0351208
7	0x3f82c933	1.0217651
8	0x3f7ace86	0.9797138
9	0x3f812b4d	1.0091339
10	0x3f7e50d0	0.9934206
11	0x3f7db03c	0.9909704
12	0x3f835308	1.0259714
13	0x3f835749	1.0261012
14	0x3f8627cc	1.0480895
15	0x3f85f66b	1.0465826
16	0x3f8aaa99	1.0833312
17	0x3f86ee2f	1.0541438
18	0x3f886d08	1.0658274
19	0x3f8a2d99	1.0795165
20	0x3f8a6ca8	1.0814409
21	0x3f86198d	1.0476547
22	0x3f714907	0.94252056
23	0x3f8a9ea5	1.0829664
24	0x3f7eb473	0.99494094
25	0x3f86cc5e	1.0531118
26	0x3f88b427	1.0679978
27	0x3f8a8a5b	1.0823473
28	0x3f85a594	1.0441155
29	0x3f8532cc	1.0406127
30	0x3f8b79ef	1.0896586
31	0x3f850bda	1.0394242

network.10.bias f4 [32]
0	0x3d857535	0.06516496
1	0xbdb5e070	-0.08880699
2	0x3d9d2f42	0.07675029
3	0x3d89df76	0.06732075
4	0xbded325d	-0.11581872
5	0x3da2b5d3	0.079448365
6	0x3d97370a	0.07383545
7	0x3ddffb29	0.10936577
8	0x3d7561d7	0.05990776
9	0x3d01b915	0.03167065
10	0xbe82c272	-0.25538975
11	0x3d9589c2	0.07301666
12	0x3d5163d8	0.05112061
13	0xbe12c74a	-0.14333835
14	0xbe2a52de	-0.16633174
15	0xbd053f25	-0.032530922
16	0xbe160781	-0.146513
17	0xbd959bd4	-0.073051125
18	0xbe0751f5	-0.13214858
19	0xbe1861be	-0.14881036
20	0xbdd8d7eb	-0.10588058
21	0xbe05967e	-0.1304569
22	0x3d90b16f	0.07065093
23	0xbe16398c	-0.1467039
24	0xbe11233d	-0.14173599
25	0xbbbaec46	-0.0057044355
26	0xbe5cb3c5	-0.21552952
27	0xbe0dd91a	-0.13852349
28	0x3d4bfad7	0.049799766
29	0x3d883345	0.06650404
30	0xbdf1d363	-0.11807897
31	0xbd84730a	-0.064672545

network.10.running_mean f4 [32]
0	0x3eda2abb	0.42610726
1	0x3f3de515	0.74177676
2	0x3f1df313	0.61699027
3	0x3f012d4f	0.5045976
4	0x3edf8312	0.43654686
5	0x3ef5d48b	0.4801372
6	0x3efad840	0.4899311
7	0x3ec58e23	0.38585004
8	0x3f245a25	0.6420005
9	0x3f301669	0.68784195
10	0x3f11b9f0	0.56924343
11	0x3f1026f3	0.5630943
12	0x3f1cdbb7	0.6127276
13	0x3f06a645	0.5259746
14	0x3edcbbe2	0.43112093
15	0x3f089012	0.53344834
16	0x3f25f8e1	0.64832884
17	0x3f0bb6a5	0.5457557
18	0x3f157eec	0.5839679
19	0x3f12c1c2	0.573269
20	0x3f102b7c	0.5631635
21	0x3ed9a2f7	0.42507145
22	0x3ec590d6	0.38587064
23	0x3f0fe5d6	0.56210077
24	0x3eb96ba8	0.36214948
25	0x3eb49724	0.3527156
26	0x3f25900e	0.64672935
27	0x3f08a273	0.5337288
28	0x3f1e0e12	0.6174022
29	0x3f120d51	0.5705157
30	0x3ed62aca	0.4182952
31	0x3ed33aca	0.4125579

network.10.running_var f4 [32]
0	0x3eb26aa6	0.3484699
1	0x3f9fbf5e	1.2480276
2	0x3f41005c	0.75391173
3	0x3f28a293	0.6587307
4	0x3f0024ae	0.5005597
5	0x3ee9ed70	0.45688963
6	0x3f0c2a36	0.5475191
7	0x3eb3aa6c	0.3509096
8	0x3f322010	0.69580173
9	0x3f70edd6	0.9411291
10	0x3f6bc8e6	0.9210342
11	0x3f3782f2	0.7168418
12	0x3f47da65	0.7806762
13	0x3f53d052	0.82739747
14	0x3ef67f41	0.48143962
15	0x3f3ec4ea	0.74519217
16	0x3f54d331	0.8313475
17	0x3ef9849d	0.48733988
18	0x3f60c5ff	0.8780212
19	0x3f5c5806	0.86071813
20	0x3f6c49b8	0.92299986
21	0x3f4dd252	0.8039905
22	0x3eb4637b	0.35232148
23	0x3f3f50aa	0.7473246
24	0x3f14f1a5	0.5818122
25	0x3ed51ffb	0.41625962
26	0x3f7a040e	0.97662437
27	0x3f67e860	0.9058895
28	0x3f2d44cb	0.67683095
29	0x3f08e46e	0.53473556
30	0x3f4bcfae	0.7961377
31	0x3ee547ad	0.44781247
